Model specification:
MultilayerEncoder(
  (encode_layers): ModuleDict(
    (input_dropout): SeqDropout(
      (dropout): Dropout2d(p=0.05, inplace=False)
    )
    (conv00): Conv1d(4, 36, kernel_size=(8,), stride=(1,), padding=(4,))
    (relu00): ReLU()
    (pool0): MaxPool1d(kernel_size=4, stride=4, padding=0, dilation=1, ceil_mode=False)
    (norm0): BatchNorm1d(36, eps=1e-05, momentum=0.1, affine=True, track_running_stats=True)
    (dropout0): Dropout(p=0.05, inplace=False)
    (conv10): Conv1d(36, 72, kernel_size=(8,), stride=(1,), padding=(4,))
    (relu10): ReLU()
    (pool1): MaxPool1d(kernel_size=4, stride=4, padding=0, dilation=1, ceil_mode=False)
    (norm1): BatchNorm1d(72, eps=1e-05, momentum=0.1, affine=True, track_running_stats=True)
    (dropout1): Dropout(p=0.05, inplace=False)
    (view): View()
    (linear0): Linear(in_features=288, out_features=80, bias=True)
  )
  (decode_layers): ModuleDict(
    (latent_noise): GaussianNoise()
    (linear0): Linear(in_features=80, out_features=288, bias=True)
    (view): View()
    (relu00): ReLU()
    (norm0): BatchNorm1d(72, eps=1e-05, momentum=0.1, affine=True, track_running_stats=True)
    (pool0): Upsample(scale_factor=4.0, mode=linear)
    (conv00): ConvTranspose1d(72, 36, kernel_size=(8,), stride=(1,), padding=(4,))
    (relu10): ReLU()
    (norm1): BatchNorm1d(36, eps=1e-05, momentum=0.1, affine=True, track_running_stats=True)
    (pool1): Upsample(scale_factor=4.0, mode=linear)
    (conv10): ConvTranspose1d(36, 4, kernel_size=(8,), stride=(1,), padding=(4,))
    (softmax): Softmax(dim=1)
  )
)
Config values:
{'name': 'aem0', 'model': 'Multilayer', 'kernel_len': 8, 'latent_len': 80, 'seq_len': 64, 'seq_per_batch': 20, 'input_path': 'data/ref_genome/chr22_excerpt_4m.fa', 'split_prop': 0.05, 'epochs': 5, 'learn_rate': 1.0, 'input_dropout_freq': 0.05, 'latent_noise_std': 0.3, 'save_model': True, 'disable_eval': False, 'neighbour_loss_prop': 0.0, 'load_prev_model_state': None, 'hidden_len': 36, 'pool_size': 4, 'n_conv_and_pool': 2, 'n_conv_before_pool': 1, 'n_linear': 1}
…
