Model specification:
MultilayerEncoder(
  (encode_layers): ModuleDict(
    (input_dropout): SeqDropout(
      (dropout): Dropout2d(p=0.05, inplace=False)
    )
    (conv00): Conv1d(4, 10, kernel_size=(3,), stride=(1,), padding=(1,))
    (relu00): ReLU()
    (pool0): MaxPool1d(kernel_size=3, stride=3, padding=0, dilation=1, ceil_mode=False)
    (norm0): BatchNorm1d(10, eps=1e-05, momentum=0.1, affine=True, track_running_stats=True)
    (dropout0): Dropout(p=0.05, inplace=False)
    (conv10): Conv1d(10, 20, kernel_size=(3,), stride=(1,), padding=(1,))
    (relu10): ReLU()
    (pool1): MaxPool1d(kernel_size=3, stride=3, padding=0, dilation=1, ceil_mode=False)
    (norm1): BatchNorm1d(20, eps=1e-05, momentum=0.1, affine=True, track_running_stats=True)
    (dropout1): Dropout(p=0.05, inplace=False)
    (view): View()
    (linear0): Linear(in_features=60, out_features=40, bias=True)
  )
  (decode_layers): ModuleDict(
    (latent_noise): GaussianNoise()
    (linear0): Linear(in_features=40, out_features=60, bias=True)
    (view): View()
    (relu00): ReLU()
    (norm0): BatchNorm1d(20, eps=1e-05, momentum=0.1, affine=True, track_running_stats=True)
    (pool0): Upsample(scale_factor=3.0, mode=linear)
    (conv00): ConvTranspose1d(20, 10, kernel_size=(3,), stride=(1,), padding=(1,))
    (relu10): ReLU()
    (norm1): BatchNorm1d(10, eps=1e-05, momentum=0.1, affine=True, track_running_stats=True)
    (pool1): Upsample(scale_factor=3.0, mode=linear)
    (conv10): ConvTranspose1d(10, 4, kernel_size=(3,), stride=(1,), padding=(1,))
    (softmax): Softmax(dim=1)
  )
)
Config values:
{'name': 'aem0', 'model': 'Multilayer', 'kernel_len': 3, 'latent_len': 40, 'seq_len': 27, 'seq_per_batch': 20, 'input_path': 'data/ref_genome/chr22_excerpt_4m.fa', 'split_prop': 0.05, 'epochs': 20, 'learn_rate': 0.005, 'input_dropout_freq': 0.05, 'latent_noise_std': 0.3, 'save_model': True, 'disable_eval': False, 'neighbour_loss_prop': 0.0, 'load_prev_model_state': None, 'hidden_len': 10, 'pool_size': 3, 'n_conv_and_pool': 2, 'n_conv_before_pool': 1, 'n_linear': 1}
…
epoch 15, avg loss 0.45480137623515504, validation acc. 0.5555555555555556
epoch 16, avg loss 0.45301412549739883, validation acc. 0.5666666666666667
epoch 17, avg loss 0.4513512603983973, validation acc. 0.5685185185185185
epoch 18, avg loss 0.44973687613363356, validation acc. 0.49444444444444446
epoch 19, avg loss 0.4479308490323431, validation acc. 0.5537037037037037
Saving model to /home/devin/d/data/src/chgi/src/ae/autoencoder/aem0chr22_excerpt_4mMultilayer3x40d0.05n0.3l0.0_20at0.005.pth
Model specification:
MultilayerEncoder(
  (encode_layers): ModuleDict(
    (input_dropout): SeqDropout(
      (dropout): Dropout2d(p=0.05, inplace=False)
    )
    (conv00): Conv1d(4, 10, kernel_size=(3,), stride=(1,), padding=(1,))
    (relu00): ReLU()
    (pool0): MaxPool1d(kernel_size=3, stride=3, padding=0, dilation=1, ceil_mode=False)
    (norm0): BatchNorm1d(10, eps=1e-05, momentum=0.1, affine=True, track_running_stats=True)
    (dropout0): Dropout(p=0.05, inplace=False)
    (conv10): Conv1d(10, 20, kernel_size=(3,), stride=(1,), padding=(1,))
    (relu10): ReLU()
    (pool1): MaxPool1d(kernel_size=3, stride=3, padding=0, dilation=1, ceil_mode=False)
    (norm1): BatchNorm1d(20, eps=1e-05, momentum=0.1, affine=True, track_running_stats=True)
    (dropout1): Dropout(p=0.05, inplace=False)
    (view): View()
    (linear0): Linear(in_features=60, out_features=60, bias=True)
  )
  (decode_layers): ModuleDict(
    (latent_noise): GaussianNoise()
    (linear0): Linear(in_features=60, out_features=60, bias=True)
    (view): View()
    (relu00): ReLU()
    (norm0): BatchNorm1d(20, eps=1e-05, momentum=0.1, affine=True, track_running_stats=True)
    (pool0): Upsample(scale_factor=3.0, mode=linear)
    (conv00): ConvTranspose1d(20, 10, kernel_size=(3,), stride=(1,), padding=(1,))
    (relu10): ReLU()
    (norm1): BatchNorm1d(10, eps=1e-05, momentum=0.1, affine=True, track_running_stats=True)
    (pool1): Upsample(scale_factor=3.0, mode=linear)
    (conv10): ConvTranspose1d(10, 4, kernel_size=(3,), stride=(1,), padding=(1,))
    (softmax): Softmax(dim=1)
  )
)
Config values:
{'name': 'aem0', 'model': 'Multilayer', 'kernel_len': 3, 'latent_len': 60, 'seq_len': 27, 'seq_per_batch': 20, 'input_path': 'data/ref_genome/chr22_excerpt_4m.fa', 'split_prop': 0.05, 'epochs': 20, 'learn_rate': 0.005, 'input_dropout_freq': 0.05, 'latent_noise_std': 0.3, 'save_model': True, 'disable_eval': False, 'neighbour_loss_prop': 0.0, 'load_prev_model_state': None, 'hidden_len': 10, 'pool_size': 3, 'n_conv_and_pool': 2, 'n_conv_before_pool': 1, 'n_linear': 1}
…
epoch 15, avg loss 0.44136807431764224, validation acc. 0.5740740740740741
epoch 16, avg loss 0.4384170677161817, validation acc. 0.5703703703703704
epoch 17, avg loss 0.4358766162716574, validation acc. 0.6037037037037037
epoch 18, avg loss 0.4334641639191674, validation acc. 0.5555555555555556
epoch 19, avg loss 0.43094926680392, validation acc. 0.6055555555555555
Saving model to /home/devin/d/data/src/chgi/src/ae/autoencoder/aem0chr22_excerpt_4mMultilayer3x60d0.05n0.3l0.0_20at0.005.pth
Model specification:
MultilayerEncoder(
  (encode_layers): ModuleDict(
    (input_dropout): SeqDropout(
      (dropout): Dropout2d(p=0.05, inplace=False)
    )
    (conv00): Conv1d(4, 10, kernel_size=(3,), stride=(1,), padding=(1,))
    (relu00): ReLU()
    (pool0): MaxPool1d(kernel_size=3, stride=3, padding=0, dilation=1, ceil_mode=False)
    (norm0): BatchNorm1d(10, eps=1e-05, momentum=0.1, affine=True, track_running_stats=True)
    (dropout0): Dropout(p=0.05, inplace=False)
    (conv10): Conv1d(10, 20, kernel_size=(3,), stride=(1,), padding=(1,))
    (relu10): ReLU()
    (pool1): MaxPool1d(kernel_size=3, stride=3, padding=0, dilation=1, ceil_mode=False)
    (norm1): BatchNorm1d(20, eps=1e-05, momentum=0.1, affine=True, track_running_stats=True)
    (dropout1): Dropout(p=0.05, inplace=False)
    (view): View()
    (linear0): Linear(in_features=60, out_features=80, bias=True)
  )
  (decode_layers): ModuleDict(
    (latent_noise): GaussianNoise()
    (linear0): Linear(in_features=80, out_features=60, bias=True)
    (view): View()
    (relu00): ReLU()
    (norm0): BatchNorm1d(20, eps=1e-05, momentum=0.1, affine=True, track_running_stats=True)
    (pool0): Upsample(scale_factor=3.0, mode=linear)
    (conv00): ConvTranspose1d(20, 10, kernel_size=(3,), stride=(1,), padding=(1,))
    (relu10): ReLU()
    (norm1): BatchNorm1d(10, eps=1e-05, momentum=0.1, affine=True, track_running_stats=True)
    (pool1): Upsample(scale_factor=3.0, mode=linear)
    (conv10): ConvTranspose1d(10, 4, kernel_size=(3,), stride=(1,), padding=(1,))
    (softmax): Softmax(dim=1)
  )
)
Config values:
{'name': 'aem0', 'model': 'Multilayer', 'kernel_len': 3, 'latent_len': 80, 'seq_len': 27, 'seq_per_batch': 20, 'input_path': 'data/ref_genome/chr22_excerpt_4m.fa', 'split_prop': 0.05, 'epochs': 20, 'learn_rate': 0.005, 'input_dropout_freq': 0.05, 'latent_noise_std': 0.3, 'save_model': True, 'disable_eval': False, 'neighbour_loss_prop': 0.0, 'load_prev_model_state': None, 'hidden_len': 10, 'pool_size': 3, 'n_conv_and_pool': 2, 'n_conv_before_pool': 1, 'n_linear': 1}
…
epoch 15, avg loss 0.4372044802880047, validation acc. 0.5666666666666667
epoch 16, avg loss 0.43391640068468157, validation acc. 0.5981481481481481
epoch 17, avg loss 0.430512402453667, validation acc. 0.5962962962962963
epoch 18, avg loss 0.4276386499383671, validation acc. 0.6111111111111112
epoch 19, avg loss 0.4251198888942055, validation acc. 0.6111111111111112
Saving model to /home/devin/d/data/src/chgi/src/ae/autoencoder/aem0chr22_excerpt_4mMultilayer3x80d0.05n0.3l0.0_20at0.005.pth
Model specification:
MultilayerEncoder(
  (encode_layers): ModuleDict(
    (input_dropout): SeqDropout(
      (dropout): Dropout2d(p=0.05, inplace=False)
    )
    (conv00): Conv1d(4, 8, kernel_size=(3,), stride=(1,), padding=(1,))
    (relu00): ReLU()
    (pool0): MaxPool1d(kernel_size=3, stride=3, padding=0, dilation=1, ceil_mode=False)
    (norm0): BatchNorm1d(8, eps=1e-05, momentum=0.1, affine=True, track_running_stats=True)
    (dropout0): Dropout(p=0.05, inplace=False)
    (conv10): Conv1d(8, 16, kernel_size=(3,), stride=(1,), padding=(1,))
    (relu10): ReLU()
    (pool1): MaxPool1d(kernel_size=3, stride=3, padding=0, dilation=1, ceil_mode=False)
    (norm1): BatchNorm1d(16, eps=1e-05, momentum=0.1, affine=True, track_running_stats=True)
    (dropout1): Dropout(p=0.05, inplace=False)
    (view): View()
    (linear0): Linear(in_features=48, out_features=80, bias=True)
  )
  (decode_layers): ModuleDict(
    (latent_noise): GaussianNoise()
    (linear0): Linear(in_features=80, out_features=48, bias=True)
    (view): View()
    (relu00): ReLU()
    (norm0): BatchNorm1d(16, eps=1e-05, momentum=0.1, affine=True, track_running_stats=True)
    (pool0): Upsample(scale_factor=3.0, mode=linear)
    (conv00): ConvTranspose1d(16, 8, kernel_size=(3,), stride=(1,), padding=(1,))
    (relu10): ReLU()
    (norm1): BatchNorm1d(8, eps=1e-05, momentum=0.1, affine=True, track_running_stats=True)
    (pool1): Upsample(scale_factor=3.0, mode=linear)
    (conv10): ConvTranspose1d(8, 4, kernel_size=(3,), stride=(1,), padding=(1,))
    (softmax): Softmax(dim=1)
  )
)
Config values:
{'name': 'aem0', 'model': 'Multilayer', 'kernel_len': 3, 'latent_len': 80, 'seq_len': 27, 'seq_per_batch': 20, 'input_path': 'data/ref_genome/chr22_excerpt_4m.fa', 'split_prop': 0.05, 'epochs': 20, 'learn_rate': 0.005, 'input_dropout_freq': 0.05, 'latent_noise_std': 0.3, 'save_model': True, 'disable_eval': False, 'neighbour_loss_prop': 0.0, 'load_prev_model_state': None, 'hidden_len': 8, 'pool_size': 3, 'n_conv_and_pool': 2, 'n_conv_before_pool': 1, 'n_linear': 1}
…
epoch 15, avg loss 0.4541403734389227, validation acc. 0.5351851851851852
epoch 16, avg loss 0.4525271595760351, validation acc. 0.5259259259259259
epoch 17, avg loss 0.4508716221308816, validation acc. 0.5425925925925926
epoch 18, avg loss 0.4492007758463479, validation acc. 0.5277777777777778
epoch 19, avg loss 0.4474637742875779, validation acc. 0.5555555555555556
Saving model to /home/devin/d/data/src/chgi/src/ae/autoencoder/aem0chr22_excerpt_4mMultilayer3x80d0.05n0.3l0.0_20at0.005.pth
Model specification:
MultilayerEncoder(
  (encode_layers): ModuleDict(
    (input_dropout): SeqDropout(
      (dropout): Dropout2d(p=0.05, inplace=False)
    )
    (conv00): Conv1d(4, 12, kernel_size=(3,), stride=(1,), padding=(1,))
    (relu00): ReLU()
    (pool0): MaxPool1d(kernel_size=3, stride=3, padding=0, dilation=1, ceil_mode=False)
    (norm0): BatchNorm1d(12, eps=1e-05, momentum=0.1, affine=True, track_running_stats=True)
    (dropout0): Dropout(p=0.05, inplace=False)
    (conv10): Conv1d(12, 24, kernel_size=(3,), stride=(1,), padding=(1,))
    (relu10): ReLU()
    (pool1): MaxPool1d(kernel_size=3, stride=3, padding=0, dilation=1, ceil_mode=False)
    (norm1): BatchNorm1d(24, eps=1e-05, momentum=0.1, affine=True, track_running_stats=True)
    (dropout1): Dropout(p=0.05, inplace=False)
    (view): View()
    (linear0): Linear(in_features=72, out_features=80, bias=True)
  )
  (decode_layers): ModuleDict(
    (latent_noise): GaussianNoise()
    (linear0): Linear(in_features=80, out_features=72, bias=True)
    (view): View()
    (relu00): ReLU()
    (norm0): BatchNorm1d(24, eps=1e-05, momentum=0.1, affine=True, track_running_stats=True)
    (pool0): Upsample(scale_factor=3.0, mode=linear)
    (conv00): ConvTranspose1d(24, 12, kernel_size=(3,), stride=(1,), padding=(1,))
    (relu10): ReLU()
    (norm1): BatchNorm1d(12, eps=1e-05, momentum=0.1, affine=True, track_running_stats=True)
    (pool1): Upsample(scale_factor=3.0, mode=linear)
    (conv10): ConvTranspose1d(12, 4, kernel_size=(3,), stride=(1,), padding=(1,))
    (softmax): Softmax(dim=1)
  )
)
Config values:
{'name': 'aem0', 'model': 'Multilayer', 'kernel_len': 3, 'latent_len': 80, 'seq_len': 27, 'seq_per_batch': 20, 'input_path': 'data/ref_genome/chr22_excerpt_4m.fa', 'split_prop': 0.05, 'epochs': 20, 'learn_rate': 0.005, 'input_dropout_freq': 0.05, 'latent_noise_std': 0.3, 'save_model': True, 'disable_eval': False, 'neighbour_loss_prop': 0.0, 'load_prev_model_state': None, 'hidden_len': 12, 'pool_size': 3, 'n_conv_and_pool': 2, 'n_conv_before_pool': 1, 'n_linear': 1}
…
epoch 15, avg loss 0.438534655970486, validation acc. 0.5814814814814815
epoch 16, avg loss 0.43475244135576646, validation acc. 0.5796296296296296
epoch 17, avg loss 0.4308844931938916, validation acc. 0.5537037037037037
epoch 18, avg loss 0.4270807521409574, validation acc. 0.5666666666666667
epoch 19, avg loss 0.42328691474155505, validation acc. 0.5925925925925926
Saving model to /home/devin/d/data/src/chgi/src/ae/autoencoder/aem0chr22_excerpt_4mMultilayer3x80d0.05n0.3l0.0_20at0.005.pth
Model specification:
MultilayerEncoder(
  (encode_layers): ModuleDict(
    (input_dropout): SeqDropout(
      (dropout): Dropout2d(p=0.05, inplace=False)
    )
    (conv00): Conv1d(4, 16, kernel_size=(3,), stride=(1,), padding=(1,))
    (relu00): ReLU()
    (pool0): MaxPool1d(kernel_size=3, stride=3, padding=0, dilation=1, ceil_mode=False)
    (norm0): BatchNorm1d(16, eps=1e-05, momentum=0.1, affine=True, track_running_stats=True)
    (dropout0): Dropout(p=0.05, inplace=False)
    (conv10): Conv1d(16, 32, kernel_size=(3,), stride=(1,), padding=(1,))
    (relu10): ReLU()
    (pool1): MaxPool1d(kernel_size=3, stride=3, padding=0, dilation=1, ceil_mode=False)
    (norm1): BatchNorm1d(32, eps=1e-05, momentum=0.1, affine=True, track_running_stats=True)
    (dropout1): Dropout(p=0.05, inplace=False)
    (view): View()
    (linear0): Linear(in_features=96, out_features=80, bias=True)
  )
  (decode_layers): ModuleDict(
    (latent_noise): GaussianNoise()
    (linear0): Linear(in_features=80, out_features=96, bias=True)
    (view): View()
    (relu00): ReLU()
    (norm0): BatchNorm1d(32, eps=1e-05, momentum=0.1, affine=True, track_running_stats=True)
    (pool0): Upsample(scale_factor=3.0, mode=linear)
    (conv00): ConvTranspose1d(32, 16, kernel_size=(3,), stride=(1,), padding=(1,))
    (relu10): ReLU()
    (norm1): BatchNorm1d(16, eps=1e-05, momentum=0.1, affine=True, track_running_stats=True)
    (pool1): Upsample(scale_factor=3.0, mode=linear)
    (conv10): ConvTranspose1d(16, 4, kernel_size=(3,), stride=(1,), padding=(1,))
    (softmax): Softmax(dim=1)
  )
)
Config values:
{'name': 'aem0', 'model': 'Multilayer', 'kernel_len': 3, 'latent_len': 80, 'seq_len': 27, 'seq_per_batch': 20, 'input_path': 'data/ref_genome/chr22_excerpt_4m.fa', 'split_prop': 0.05, 'epochs': 20, 'learn_rate': 0.005, 'input_dropout_freq': 0.05, 'latent_noise_std': 0.3, 'save_model': True, 'disable_eval': False, 'neighbour_loss_prop': 0.0, 'load_prev_model_state': None, 'hidden_len': 16, 'pool_size': 3, 'n_conv_and_pool': 2, 'n_conv_before_pool': 1, 'n_linear': 1}
…
